model/MLP.pt (torch, 33864 bytes, 8 tensors)

norm.weight f4 [200]
000000 00 00 80 3f 00 00 80 3f 00 00 80 3f 00 00 80 3f
       1.0 1.0 1.0 1.0
000010 00 00 80 3f 00 00 80 3f 00 00 80 3f 00 00 80 3f
       1.0 1.0 1.0 1.0
000020 00 00 80 3f 00 00 80 3f 00 00 80 3f 00 00 80 3f
       1.0 1.0 1.0 1.0
000030 00 00 80 3f 00 00 80 3f 00 00 80 3f 00 00 80 3f
       1.0 1.0 1.0 1.0
000040 00 00 80 3f 00 00 80 3f 00 00 80 3f 00 00 80 3f
       1.0 1.0 1.0 1.0
000050 00 00 80 3f 00 00 80 3f 00 00 80 3f 00 00 80 3f
       1.0 1.0 1.0 1.0
000060 00 00 80 3f 00 00 80 3f 00 00 80 3f 00 00 80 3f
       1.0 1.0 1.0 1.0
000070 00 00 80 3f 00 00 80 3f 00 00 80 3f 00 00 80 3f
       1.0 1.0 1.0 1.0
000080 00 00 80 3f 00 00 80 3f 00 00 80 3f 00 00 80 3f
       1.0 1.0 1.0 1.0
000090 00 00 80 3f 00 00 80 3f 00 00 80 3f 00 00 80 3f
       1.0 1.0 1.0 1.0
0000a0 00 00 80 3f 00 00 80 3f 00 00 80 3f 00 00 80 3f
       1.0 1.0 1.0 1.0
0000b0 00 00 80 3f 00 00 80 3f 00 00 80 3f 00 00 80 3f
       1.0 1.0 1.0 1.0
0000c0 00 00 80 3f 00 00 80 3f 00 00 80 3f 00 00 80 3f
       1.0 1.0 1.0 1.0
0000d0 00 00 80 3f 00 00 80 3f 00 00 80 3f 00 00 80 3f
       1.0 1.0 1.0 1.0
0000e0 00 00 80 3f 00 00 80 3f 00 00 80 3f 00 00 80 3f
       1.0 1.0 1.0 1.0
0000f0 00 00 80 3f 00 00 80 3f 00 00 80 3f 00 00 80 3f
       1.0 1.0 1.0 1.0
000100 00 00 80 3f 00 00 80 3f 00 00 80 3f 00 00 80 3f
       1.0 1.0 1.0 1.0
000110 00 00 80 3f 00 00 80 3f 00 00 80 3f 00 00 80 3f
       1.0 1.0 1.0 1.0
000120 00 00 80 3f 00 00 80 3f 00 00 80 3f 00 00 80 3f
       1.0 1.0 1.0 1.0
000130 00 00 80 3f 00 00 80 3f 00 00 80 3f 00 00 80 3f
       1.0 1.0 1.0 1.0
000140 00 00 80 3f 00 00 80 3f 00 00 80 3f 00 00 80 3f
       1.0 1.0 1.0 1.0
000150 00 00 80 3f 00 00 80 3f 00 00 80 3f 00 00 80 3f
       1.0 1.0 1.0 1.0
000160 00 00 80 3f 00 00 80 3f 00 00 80 3f 00 00 80 3f
       1.0 1.0 1.0 1.0
000170 00 00 80 3f 00 00 80 3f 00 00 80 3f 00 00 80 3f
       1.0 1.0 1.0 1.0
000180 00 00 80 3f 00 00 80 3f 00 00 80 3f 00 00 80 3f
       1.0 1.0 1.0 1.0
000190 00 00 80 3f 00 00 80 3f 00 00 80 3f 00 00 80 3f
       1.0 1.0 1.0 1.0
0001a0 00 00 80 3f 00 00 80 3f 00 00 80 3f 00 00 80 3f
       1.0 1.0 1.0 1.0
0001b0 00 00 80 3f 00 00 80 3f 00 00 80 3f 00 00 80 3f
       1.0 1.0 1.0 1.0
0001c0 00 00 80 3f 00 00 80 3f 00 00 80 3f 00 00 80 3f
       1.0 1.0 1.0 1.0
0001d0 00 00 80 3f 00 00 80 3f 00 00 80 3f 00 00 80 3f
       1.0 1.0 1.0 1.0
0001e0 00 00 80 3f 00 00 80 3f 00 00 80 3f 00 00 80 3f
       1.0 1.0 1.0 1.0
0001f0 00 00 80 3f 00 00 80 3f 00 00 80 3f 00 00 80 3f
       1.0 1.0 1.0 1.0
000200 00 00 80 3f 00 00 80 3f 00 00 80 3f 00 00 80 3f
       1.0 1.0 1.0 1.0
000210 00 00 80 3f 00 00 80 3f 00 00 80 3f 00 00 80 3f
       1.0 1.0 1.0 1.0
000220 00 00 80 3f 00 00 80 3f 00 00 80 3f 00 00 80 3f
       1.0 1.0 1.0 1.0
000230 00 00 80 3f 00 00 80 3f 00 00 80 3f 00 00 80 3f
       1.0 1.0 1.0 1.0
000240 00 00 80 3f 00 00 80 3f 00 00 80 3f 00 00 80 3f
       1.0 1.0 1.0 1.0
000250 00 00 80 3f 00 00 80 3f 00 00 80 3f 00 00 80 3f
       1.0 1.0 1.0 1.0
000260 00 00 80 3f 00 00 80 3f 00 00 80 3f 00 00 80 3f
       1.0 1.0 1.0 1.0
000270 00 00 80 3f 00 00 80 3f 00 00 80 3f 00 00 80 3f
       1.0 1.0 1.0 1.0
000280 00 00 80 3f 00 00 80 3f 00 00 80 3f 00 00 80 3f
       1.0 1.0 1.0 1.0
000290 00 00 80 3f 00 00 80 3f 00 00 80 3f 00 00 80 3f
       1.0 1.0 1.0 1.0
0002a0 00 00 80 3f 00 00 80 3f 00 00 80 3f 00 00 80 3f
       1.0 1.0 1.0 1.0
0002b0 00 00 80 3f 00 00 80 3f 00 00 80 3f 00 00 80 3f
       1.0 1.0 1.0 1.0
0002c0 00 00 80 3f 00 00 80 3f 00 00 80 3f 00 00 80 3f
       1.0 1.0 1.0 1.0
0002d0 00 00 80 3f 00 00 80 3f 00 00 80 3f 00 00 80 3f
       1.0 1.0 1.0 1.0
0002e0 00 00 80 3f 00 00 80 3f 00 00 80 3f 00 00 80 3f
       1.0 1.0 1.0 1.0
0002f0 00 00 80 3f 00 00 80 3f 00 00 80 3f 00 00 80 3f
       1.0 1.0 1.0 1.0
000300 00 00 80 3f 00 00 80 3f 00 00 80 3f 00 00 80 3f
       1.0 1.0 1.0 1.0
000310 00 00 80 3f 00 00 80 3f 00 00 80 3f 00 00 80 3f
       1.0 1.0 1.0 1.0

norm.bias f4 [200]
000000 00 00 00 00 00 00 00 00 00 00 00 00 00 00 00 00
       0.0 0.0 0.0 0.0
000010 00 00 00 00 00 00 00 00 00 00 00 00 00 00 00 00
       0.0 0.0 0.0 0.0
000020 00 00 00 00 00 00 00 00 00 00 00 00 00 00 00 00
       0.0 0.0 0.0 0.0
000030 00 00 00 00 00 00 00 00 00 00 00 00 00 00 00 00
       0.0 0.0 0.0 0.0
000040 00 00 00 00 00 00 00 00 00 00 00 00 00 00 00 00
       0.0 0.0 0.0 0.0
000050 00 00 00 00 00 00 00 00 00 00 00 00 00 00 00 00
       0.0 0.0 0.0 0.0
000060 00 00 00 00 00 00 00 00 00 00 00 00 00 00 00 00
       0.0 0.0 0.0 0.0
000070 00 00 00 00 00 00 00 00 00 00 00 00 00 00 00 00
       0.0 0.0 0.0 0.0
000080 00 00 00 00 00 00 00 00 00 00 00 00 00 00 00 00
       0.0 0.0 0.0 0.0
000090 00 00 00 00 00 00 00 00 00 00 00 00 00 00 00 00
       0.0 0.0 0.0 0.0
0000a0 00 00 00 00 00 00 00 00 00 00 00 00 00 00 00 00
       0.0 0.0 0.0 0.0
0000b0 00 00 00 00 00 00 00 00 00 00 00 00 00 00 00 00
       0.0 0.0 0.0 0.0
0000c0 00 00 00 00 00 00 00 00 00 00 00 00 00 00 00 00
       0.0 0.0 0.0 0.0
0000d0 00 00 00 00 00 00 00 00 00 00 00 00 00 00 00 00
       0.0 0.0 0.0 0.0
0000e0 00 00 00 00 00 00 00 00 00 00 00 00 00 00 00 00
       0.0 0.0 0.0 0.0
0000f0 00 00 00 00 00 00 00 00 00 00 00 00 00 00 00 00
       0.0 0.0 0.0 0.0
000100 00 00 00 00 00 00 00 00 00 00 00 00 00 00 00 00
       0.0 0.0 0.0 0.0
000110 00 00 00 00 00 00 00 00 00 00 00 00 00 00 00 00
       0.0 0.0 0.0 0.0
000120 00 00 00 00 00 00 00 00 00 00 00 00 00 00 00 00
       0.0 0.0 0.0 0.0
000130 00 00 00 00 00 00 00 00 00 00 00 00 00 00 00 00
       0.0 0.0 0.0 0.0
000140 00 00 00 00 00 00 00 00 00 00 00 00 00 00 00 00
       0.0 0.0 0.0 0.0
000150 00 00 00 00 00 00 00 00 00 00 00 00 00 00 00 00
       0.0 0.0 0.0 0.0
000160 00 00 00 00 00 00 00 00 00 00 00 00 00 00 00 00
       0.0 0.0 0.0 0.0
000170 00 00 00 00 00 00 00 00 00 00 00 00 00 00 00 00
       0.0 0.0 0.0 0.0
000180 00 00 00 00 00 00 00 00 00 00 00 00 00 00 00 00
       0.0 0.0 0.0 0.0
000190 00 00 00 00 00 00 00 00 00 00 00 00 00 00 00 00
       0.0 0.0 0.0 0.0
0001a0 00 00 00 00 00 00 00 00 00 00 00 00 00 00 00 00
       0.0 0.0 0.0 0.0
0001b0 00 00 00 00 00 00 00 00 00 00 00 00 00 00 00 00
       0.0 0.0 0.0 0.0
0001c0 00 00 00 00 00 00 00 00 00 00 00 00 00 00 00 00
       0.0 0.0 0.0 0.0
0001d0 00 00 00 00 00 00 00 00 00 00 00 00 00 00 00 00
       0.0 0.0 0.0 0.0
0001e0 00 00 00 00 00 00 00 00 00 00 00 00 00 00 00 00
       0.0 0.0 0.0 0.0
0001f0 00 00 00 00 00 00 00 00 00 00 00 00 00 00 00 00
       0.0 0.0 0.0 0.0
000200 00 00 00 00 00 00 00 00 00 00 00 00 00 00 00 00
       0.0 0.0 0.0 0.0
000210 00 00 00 00 00 00 00 00 00 00 00 00 00 00 00 00
       0.0 0.0 0.0 0.0
000220 00 00 00 00 00 00 00 00 00 00 00 00 00 00 00 00
       0.0 0.0 0.0 0.0
000230 00 00 00 00 00 00 00 00 00 00 00 00 00 00 00 00
       0.0 0.0 0.0 0.0
000240 00 00 00 00 00 00 00 00 00 00 00 00 00 00 00 00
       0.0 0.0 0.0 0.0
000250 00 00 00 00 00 00 00 00 00 00 00 00 00 00 00 00
       0.0 0.0 0.0 0.0
000260 00 00 00 00 00 00 00 00 00 00 00 00 00 00 00 00
       0.0 0.0 0.0 0.0
000270 00 00 00 00 00 00 00 00 00 00 00 00 00 00 00 00
       0.0 0.0 0.0 0.0
000280 00 00 00 00 00 00 00 00 00 00 00 00 00 00 00 00
       0.0 0.0 0.0 0.0
000290 00 00 00 00 00 00 00 00 00 00 00 00 00 00 00 00
       0.0 0.0 0.0 0.0
0002a0 00 00 00 00 00 00 00 00 00 00 00 00 00 00 00 00
       0.0 0.0 0.0 0.0
0002b0 00 00 00 00 00 00 00 00 00 00 00 00 00 00 00 00
       0.0 0.0 0.0 0.0
0002c0 00 00 00 00 00 00 00 00 00 00 00 00 00 00 00 00
       0.0 0.0 0.0 0.0
0002d0 00 00 00 00 00 00 00 00 00 00 00 00 00 00 00 00
       0.0 0.0 0.0 0.0
0002e0 00 00 00 00 00 00 00 00 00 00 00 00 00 00 00 00
       0.0 0.0 0.0 0.0
0002f0 00 00 00 00 00 00 00 00 00 00 00 00 00 00 00 00
       0.0 0.0 0.0 0.0
000300 00 00 00 00 00 00 00 00 00 00 00 00 00 00 00 00
       0.0 0.0 0.0 0.0
000310 00 00 00 00 00 00 00 00 00 00 00 00 00 00 00 00
       0.0 0.0 0.0 0.0

norm.running_mean f4 [200]
000000 75 ea 34 3e 9e 29 8a bd 09 18 1d 3e c6 e6 4d 3d
       0.17667563 -0.06746219 0.153412 0.05026891
000010 cc 21 2b 3e 1c 9f 8f be 25 d7 0a 3e 32 70 e9 3e
       0.16712111 -0.28051078 0.13558634 0.4559341
000020 f0 5e 2b be 5b fc 8f bb a5 7f 4d be 6a f9 43 be
       -0.16735435 -0.004394097 -0.20068224 -0.19138113
000030 58 9b d2 bc 78 f2 10 3e 4a ba 70 be 03 9d 91 3c
       -0.02570884 0.14154994 -0.23508564 0.017775064
000040 fc cc dc bd ce ad df 3c ec b1 2b be fe 8e b4 be
       -0.10781285 0.027304556 -0.1676709 -0.35265344
000050 06 be cb 3d 76 c5 8e bd 74 03 84 bd 28 86 5d bd
       0.099483535 -0.069712564 -0.06445971 -0.05408302
000060 79 69 0f be 35 21 c6 3d 29 42 57 bd 31 02 1a be
       -0.14005078 0.096743025 -0.05255333 -0.15039898
000070 09 85 2e be b2 b2 76 3c eb 9c 6e 3d f9 a6 54 bc
       -0.17042936 0.015057253 0.058255117 -0.0129792625
000080 51 27 01 3e 55 70 c0 3d 0e 90 22 be 55 09 f9 3d
       0.12612654 0.09396426 -0.15875265 0.12159983
000090 ae 1e 62 3e c2 6b 27 3e 09 a5 73 be cf a7 fe bd
       0.22082016 0.163497 -0.23793425 -0.12434351
0000a0 a3 bc e7 bd c5 85 8b bc ae bf 0f be e0 eb a2 bc
       -0.113152765 -0.01703156 -0.14037964 -0.019887865
0000b0 36 34 74 3e 49 ff 7e bc ab c7 0f 3e fe aa 10 be
       0.23848042 -0.015563794 0.14041011 -0.14127728
0000c0 66 d5 88 3d 04 f6 80 3d 95 ec f4 3d 49 54 0a be
       0.066813275 0.06296924 0.11959187 -0.13508715
0000d0 3f 56 48 be 42 85 64 bd 2e e8 74 3e f9 61 1d bd
       -0.1956415 -0.055791147 0.23916695 -0.038423512
0000e0 eb 0d cb 3c a8 7b 59 be 37 f8 c7 bd 84 40 36 be
       0.02478691 -0.21238577 -0.0976414 -0.17798048
0000f0 3f 57 6e bd b4 49 91 3d 76 55 0f 3d 7b f3 10 be
       -0.058188673 0.07094136 0.03499361 -0.1415538
000100 6a 13 2a 3d 58 56 22 3d 09 fa e8 3d b4 7b 83 3e
       0.04152242 0.039633125 0.113758154 0.25680315
000110 a3 6e 25 bd b8 44 1a 3e 1d 2d 4e bd 84 21 af 3d
       -0.040388715 0.15065277 -0.050335992 0.085513145
000120 15 7b 9a 3e a7 30 be 3d b4 02 f2 bd ff 23 ba 3d
       0.3017203 0.092866234 -0.11816922 0.09088897
000130 27 dd e9 3d fc 10 5e bc 52 36 c9 be 84 00 f8 bd
       0.114191346 -0.013553854 -0.39299256 -0.12109473
000140 23 c5 de 3c 70 4d cf 39 dc fc 42 bd 85 37 62 3e
       0.027193611 0.00039539812 -0.047604427 0.22091492
000150 28 c3 df bd 25 19 24 be 16 7e 01 3e 32 d2 90 3e
       -0.10925895 -0.16025217 0.12645754 0.28285366
000160 5b 15 02 be 96 78 30 bd 7f 82 d7 3d 45 80 15 3e
       -0.12703459 -0.04308375 0.10522937 0.14599712
000170 f4 fe 41 3e 19 8b ac 3e a5 f2 af 3e 80 12 d6 3b
       0.18944913 0.33699873 0.3436481 0.006532967
000180 3b 09 25 3e 45 bd a7 bd 1a c4 c2 3c ac 99 bf 3b
       0.16116802 -0.08190397 0.02377515 0.0058471765
000190 6c e0 30 be 40 94 12 3e 83 f5 cd bc ee cb 36 bd
       -0.1727311 0.14314365 -0.025141483 -0.044628076
0001a0 d8 9d 86 bd 7e 89 8b be 4b 33 37 3e d0 ac 68 3d
       -0.06573075 -0.27253336 0.1789066 0.05680543
0001b0 28 3d 73 bd b0 0e 7c bd 57 36 06 3d a0 3d 4d be
       -0.059384495 -0.061537445 0.032766666 -0.2004304
0001c0 2e c0 32 bd a7 d5 bf bc 92 6c c9 3d bd 49 d6 bc
       -0.043640308 -0.023417307 0.09835161 -0.026158208
0001d0 ec e3 b9 bd e6 53 db be 86 51 01 3e f4 45 54 be
       -0.09076676 -0.42837447 0.12628755 -0.2072981
0001e0 43 5e a8 bd c0 ae a2 3e 8a 7e 23 3e 95 be af bd
       -0.08221104 0.3177395 0.1596624 -0.085812725
0001f0 04 ce 89 be 02 2f 98 3c da 80 39 be 64 8f de 3d
       -0.2691499 0.018577103 -0.18115559 0.10867193
000200 49 6c 96 bd 88 8d de 3d 99 25 6a 3d 25 c0 a5 be
       -0.073448725 0.10866839 0.057164762 -0.32373157
000210 0e 09 9a 3d f7 ab f0 bd 9c 29 3d bc 9b 2e b0 3d
       0.07521258 -0.1175155 -0.011545565 0.08602639
000220 a9 0b 84 bd b8 39 c2 bd a5 a4 32 be d9 2d 11 bd
       -0.064475365 -0.09483665 -0.1744562 -0.035444114
000230 71 cb c7 3e ae 36 04 be a0 44 c9 3c 30 d7 03 be
       0.390224 -0.12911484 0.024568856 -0.12875056
000240 86 f4 ad 3d f2 4e b5 3d 72 3d 00 3d b4 39 eb 3d
       0.08493905 0.08852948 0.0313086 0.114856154
000250 78 13 cd bd 12 d3 50 3e e1 59 f7 3d bf b2 26 be
       -0.10013479 0.20393017 0.1207769 -0.16279124
000260 60 29 ad 3d 91 d5 1d 3e f9 21 ab bd 9b 24 18 3e
       0.08455157 0.154135 -0.08356089 0.14857714
000270 4e f6 84 3e d5 b5 6d 3e d7 68 29 bc 13 43 1e bc
       0.25969166 0.23213895 -0.010339937 -0.009659546
000280 02 42 b1 3d ce 4f 8f 3d c9 15 42 bd ed a1 f2 bc
       0.08655168 0.069976434 -0.047384057 -0.029618228
000290 89 6f 86 bd db 0b 02 3e df fa b0 3d 0f 65 1e be
       -0.065642424 0.12699835 0.086416 -0.15468238
0002a0 d0 23 d5 bc 18 e0 27 3e 7a 4e 01 be a9 a2 ad bd
       -0.026018053 0.16394079 -0.12627593 -0.084782906
0002b0 c7 a2 ba 3d 83 0d 29 be 93 f1 91 3e 7a 07 15 3e
       0.091130786 -0.1650906 0.2850462 0.14553633
0002c0 b0 57 a7 be b2 b8 d1 3d 65 ee 5b 3e 01 cf 86 3e
       -0.32684088 0.10240306 0.21477659 0.26329806
0002d0 b9 12 d5 bd 9f 4a 6d 3c a3 16 97 3c ca c0 3e 3e
       -0.10403962 0.014483123 0.018443411 0.1862823
0002e0 6b 90 49 3e ff 60 05 be db 34 75 3d 18 19 73 3e
       0.19683997 -0.13025282 0.05986486 0.23740041
0002f0 da 11 2b 3e 88 7b a9 bb 74 7d 3e 3e 4f fa 1e bd
       0.16706029 -0.005172197 0.18602544 -0.03881293
000300 f1 e4 1e be 62 b5 25 3d f4 89 09 3e b5 a4 35 3b
       -0.15517022 0.040456183 0.13431531 0.0027716581
000310 e2 b3 96 3d 6f 94 9e 3b e7 ec 5f bd 92 13 19 3e
       0.07358529 0.004839472 -0.054669287 0.14948872

norm.running_var f4 [200]
000000 09 28 be 3c 3e 99 99 3c d8 86 e6 3c b4 08 bc 3c
       0.02321245 0.01874983 0.02814047 0.022953369
000010 16 a5 9c 3c 3d 04 dc 3c 62 87 eb 3c 7e 24 b2 3c
       0.019121688 0.02685749 0.028751079 0.021745916
000020 ad 0b bd 3c df 10 8e 3c 5e b4 a7 3c 85 c6 a3 3c
       0.023076857 0.01734203 0.020471748 0.019992122
000030 92 d6 b7 3c 84 98 ad 3c f2 2f c0 3c 1f d2 ac 3c
       0.022441182 0.02119089 0.023460362 0.021096287
000040 e0 d6 af 3c 5b 7a a0 3c c5 bf a4 3c 95 b0 c4 3c
       0.021464765 0.019589594 0.020110974 0.024009982
000050 87 55 c9 3c 17 38 c1 3c ab 7e 11 3d 91 9b a2 3c
       0.024576915 0.023586316 0.03552119 0.01984957
000060 0e e0 c5 3c c3 e8 97 3c fe be 93 3c e6 9b b5 3c
       0.02415469 0.018543607 0.018035408 0.022169065
000070 98 db cb 3c e3 e9 b9 3c ab bf cd 3c 38 9f 90 3c
       0.024884984 0.022694534 0.025115808 0.017654046
000080 c3 1c bc 3c 5a f0 c7 3c 3f 12 91 3c 9e b8 dd 3c
       0.022962933 0.0244066 0.017708896 0.027065571
000090 76 e1 99 3c 7e de 93 3c 9a 44 9d 3c 5e 16 c6 3c
       0.018784266 0.018050428 0.01919775 0.024180587
0000a0 5c 23 93 3c 08 09 a3 3c 70 64 a4 3c 8e 44 c8 3c
       0.017961197 0.019901767 0.020067424 0.024446752
0000b0 9d c1 9e 3c 6d c2 08 3d e5 39 aa 3c b3 38 a6 3c
       0.019379431 0.033388544 0.02077956 0.020290708
0000c0 65 bd a4 3c c6 37 ab 3c a6 b1 a2 3c 68 f8 97 3c
       0.020109842 0.020900618 0.0198601 0.018551067
0000d0 4a 57 d2 3c 07 9b a8 3c be 09 c7 3c 5c 28 a6 3c
       0.025676388 0.020581735 0.024296638 0.020282917
0000e0 9c 14 c5 3c 7e 60 ad 3c 2c da ae 3c d4 8d bf 3c
       0.024057679 0.021164175 0.021344267 0.023383059
0000f0 67 64 8d 3c 54 a0 c3 3c 3e 2b 82 3c 8c 98 a8 3c
       0.01725979 0.023880161 0.01588976 0.020580553
000100 ed 20 b8 3c 06 c9 96 3c 5b a5 f8 3c ac 7f db 3c
       0.022476638 0.018406402 0.030352285 0.026794277
000110 cb b4 de 3c 85 c3 b6 3c 65 ff bb 3c a6 71 9a 3c
       0.027185818 0.022310028 0.02294893 0.01885302
000120 a1 b0 c4 3c 70 bc ae 3c 41 77 dd 3c 5c af a8 3c
       0.024010004 0.021330088 0.027034404 0.02059143
000130 f1 10 b6 3c 8a 66 96 3c 1c 37 ec 3c 75 92 ce 3c
       0.022224875 0.018359441 0.028834872 0.02521632
000140 1c ff 9d 3c 15 f1 9e 3c 1d e3 a1 3c 91 22 b6 3c
       0.019286685 0.019402066 0.019761616 0.02223328
000150 ec e8 ad 3c f5 d0 ac 3c 17 15 a8 3c 23 8b cc 3c
       0.02122923 0.021095732 0.020517869 0.02496869
000160 23 6b aa 3c 66 e6 b9 3c 49 f2 90 3c d8 ef af 3c
       0.02080304 0.02269287 0.017693656 0.021476671
000170 86 61 ce 3c bc 66 d1 3c c5 46 d4 3c ff 81 aa 3c
       0.025192987 0.025561683 0.025912652 0.02081394
000180 ef f5 cd 3c 7b c1 aa 3c f2 a4 df 3c a5 05 c6 3c
       0.025141684 0.020844212 0.027300332 0.024172613
000190 fb 94 8e 3c 70 5c cf 3c 8b 10 a6 3c 08 40 e3 3c
       0.017405024 0.025312632 0.02027156 0.027740493
0001a0 51 16 89 3c 3a 5c 9b 3c 03 9e 9e 3c ea 05 ca 3c
       0.016734274 0.018964875 0.019362455 0.024661023
0001b0 01 ee c6 3c 5a 03 b2 3c 02 39 ad 3c b1 8f ae 3c
       0.024283411 0.021730114 0.021145348 0.021308752
0001c0 01 88 aa 3c 7a 85 c0 3c 2c c5 98 3c 08 50 cc 3c
       0.020816805 0.023501147 0.018648706 0.024940506
0001d0 c0 88 d6 3c 06 ef fc 3c 55 d0 99 3c 00 ca 89 3c
       0.026188254 0.030875694 0.018776098 0.016819954
0001e0 06 5e a1 3c 44 e9 d8 3c 1b c1 f7 3c eb e7 a0 3c
       0.019698154 0.026478417 0.030243447 0.019641837
0001f0 05 13 b1 3c e3 db 91 3c 8c 12 b8 3c 33 90 b8 3c
       0.021615515 0.017805045 0.022469781 0.022529697
000200 5c ef a6 3c 27 a3 a5 3c c3 ac b8 3c 74 4c 9e 3c
       0.020377807 0.020219399 0.022543317 0.019323565
000210 b5 fc ca 3c 48 18 be 3c 49 04 bb 3c 84 3a ad 3c
       0.024778703 0.023204938 0.022829192 0.021146066
000220 60 73 ef 3c 92 cc f7 3c fb 57 97 3c ad c2 dc 3c
       0.02922982 0.030248914 0.01847457 0.026948297
000230 16 6b a5 3c 53 89 bc 3c 6a f8 ee 3c 5d 07 ca 3c
       0.020192664 0.0230147 0.029171187 0.024661714
000240 f8 df a0 3c 52 69 bd 3c 9d 28 a7 3c 2c 62 d4 3c
       0.019638047 0.02312151 0.020405108 0.025925718
000250 c5 84 bb 3c c4 7f 8e 3c 55 11 c7 3c c7 49 a3 3c
       0.022890458 0.017394908 0.024300257 0.01993264
000260 15 87 da 3c c9 0a b0 3c 11 43 a3 3c cb a6 b6 3c
       0.02667574 0.021489518 0.01992944 0.02229633
000270 48 7c c4 3c b7 09 bb 3c 48 3f b4 3c 01 6e 8e 3c
       0.023985043 0.02283178 0.022002831 0.017386438
000280 7f 81 87 3c e2 22 b5 3c b4 e1 a3 3c 30 5e 87 3c
       0.01654124 0.02211136 0.020005085 0.016524404
000290 ad 63 91 3c bf 80 a3 3c 4e 4e af 3c b9 92 ae 3c
       0.017747724 0.019958852 0.021399643 0.021310197
0002a0 1e b5 a1 3c 88 14 bc 3c 88 4e bd 3c a4 31 b8 3c
       0.019739684 0.022959009 0.023108736 0.022484608
0002b0 a6 a4 c3 3c 31 8d cc 3c 71 a1 be 3c 3e 0e a3 3c
       0.023882221 0.024969669 0.02327034 0.019904252
0002c0 d9 62 ad 3c f4 5a c2 3c 34 d5 a1 3c f7 08 b9 3c
       0.021165298 0.02372501 0.019754983 0.022587283
0002d0 39 ba d1 3c 68 8d 9e 3c ad b5 c3 3c 7d 77 ac 3c
       0.025601493 0.019354537 0.02389034 0.02105307
0002e0 0b fc b0 3c 4d 58 c9 3c 43 6f b4 3c b3 ce be 3c
       0.021604558 0.024578238 0.02202571 0.023291921
0002f0 62 1b c9 3c 59 c4 b4 3c 45 71 96 3c 6c b0 9c 3c
       0.02454919 0.022066282 0.018364558 0.019127093
000300 69 dc ad 3c 67 66 ae 3c 11 23 bd 3c 56 85 84 3c
       0.021223264 0.021289064 0.02308801 0.01617686
000310 4e 1c c6 3c b2 e7 bb 3c 40 6a a0 3c e8 2c db 3c
       0.024183419 0.02293763 0.019581914 0.026754811

layer1.weight f4 [32, 200]
000000 ac 59 58 3e 80 32 7e 3d 3b 9d f6 3e 41 76 a9 be
       0.21127957 0.06205988 0.48166832 -0.33098033
000010 61 f4 21 3d ca c5 5d be 9d 63 16 3d e9 e1 45 3d
       0.0395397 -0.21657482 0.036716092 0.048311148
000020 26 e4 1e 3d 62 1d 57 be 7c 58 26 be a6 e4 f8 bd
       0.038791798 -0.21007302 -0.16244692 -0.12152986
000030 cc 91 c0 3d 6e 45 04 bf 99 52 fc 3d ff b0 3b be
       0.094028085 -0.5166844 0.12320442 -0.18329237
000040 5b aa ac 3d c2 64 c7 bc e9 22 97 bd 1a 5f d8 bd
       0.0843093 -0.024340037 -0.073797055 -0.10565014
000050 82 f1 8a bd af 49 5b be 36 9c be be 6e b3 38 3d
       -0.06784345 -0.21414827 -0.37228554 0.045092992
000060 2a 10 da be 31 cc cd 3e cf a0 21 bf ef 3e 0e 3f
       -0.42590457 0.40194848 -0.63136 0.5556478
000070 7c 73 d4 be e0 ef 18 bd c8 a8 af bd 9e 0d 3b be
       -0.41494358 -0.037338138 -0.08577114 -0.18266913
000080 c9 48 36 3d 05 ee a7 be 05 26 80 3d 10 00 a8 3e
       0.044503007 -0.32798782 0.06257252 0.32812548
000090 3f 54 4c be e8 7a 24 3e 9e dc 4f be 3a b4 ad be
       -0.19954012 0.1606251 -0.20299003 -0.33926564
0000a0 a4 fa 52 be 47 cb 10 bf b3 f0 12 be f0 bb d7 3e
       -0.20603424 -0.56560177 -0.14349632 0.42135572
0000b0 ae e6 b0 3e 10 3a b3 bd 66 ee 38 bd f6 30 77 3c
       0.34550995 -0.08751309 -0.04514923 0.015087357
0000c0 6f 85 1c be ed 7e 2a be 41 20 35 3e bc 27 a8 be
       -0.15285276 -0.16649981 0.17688085 -0.32842815
0000d0 f7 29 36 be db ab bf 3e 7a 97 00 3e 2c 57 c0 be
       -0.17789446 0.37435803 0.12557784 -0.37566507
0000e0 4a 42 95 3e 3e ee c2 be a1 ea e1 3d d4 9c 5b be
       0.29152137 -0.3807239 0.1103108 -0.21446544
0000f0 43 05 8d be 54 96 4b 3e eb 2c 2b 3c af c2 65 3d
       -0.27543077 0.19881564 0.010447721 0.056093868
000100 c9 f7 83 bd 7c b7 a2 bd 5c f5 78 be 7e f5 b3 3e
       -0.06443746 -0.07945153 -0.24312347 0.35148233
000110 5c 29 d0 be 93 41 a1 3e 5c d6 a4 bd 45 38 dd 3d
       -0.40656555 0.31495342 -0.08048698 0.10801748
000120 76 1e 01 3e 87 15 8b 3e af 53 04 be a0 6b 94 bd
       0.12609276 0.27164862 -0.12922548 -0.0724709
000130 ce 0f 30 bf 1c 59 5c 3e 44 6c 9c be 76 3f bb 3e
       -0.68774116 0.21518368 -0.3055135 0.36571854
000140 f9 96 d9 be 54 b0 02 3e e3 1c 17 bb e7 83 a6 3e
       -0.42497995 0.12762576 -0.002305799 0.32522509
000150 7b 2f 0b bd 54 d7 ad 3e 0f cd bb 3e 2a ae 8d 3d
       -0.033980828 0.33953345 0.36679885 0.06917985
000160 0c 79 9a be f7 bb 45 be ee e7 55 be 19 09 85 3e
       -0.30170476 -0.19309984 -0.20889255 0.25983503
000170 43 58 3d 3e 43 93 b4 bd 95 50 0a 3e 7b b6 ee bd
       0.184907 -0.088171504 0.13507302 -0.11655899
000180 d9 74 f7 bc fe 22 c7 be f8 85 67 be 74 8b ce 3e
       -0.030207084 -0.38893884 -0.22609699 0.4034077
000190 ba c9 94 3e f3 d7 fd bd db a3 d5 be 9f 72 fa be
       0.29060155 -0.12394705 -0.41726574 -0.48915574
0001a0 58 d5 02 bf 2d 00 f1 3d ce ef 5f bd 00 4f c2 bd
       -0.51106787 0.11767612 -0.054672055 -0.09487724
0001b0 9a af c2 3d 0a a4 cb 3e a8 10 9f be da f0 41 3e
       0.095061496 0.3977359 -0.31067395 0.18939534
0001c0 3f 41 d3 bd e6 37 f8 bd 8f 73 9b 3e e3 72 40 be
       -0.10315179 -0.12120037 0.30361602 -0.18793826
0001d0 5f cc 85 3e 5f 3f b1 be c3 24 27 3c 5d ac 6c be
       0.26132485 -0.3461866 0.010201636 -0.23112626
0001e0 22 af 91 3e a0 94 75 be d5 55 b6 3c 42 18 6d be
       0.28453928 -0.23982477 0.022257725 -0.23153785
0001f0 7e c9 81 be fa 9b 76 be 36 4e 8b be 1b 12 56 3e
       -0.2534904 -0.24082938 -0.27208108 0.20905344
000200 78 0b 91 3e 83 1d 03 3f 90 a5 18 3f cb 82 05 be
       0.28329062 0.51216906 0.5962763 -0.13038175
000210 36 d1 85 be e1 dd 43 be fc ac 0a bf 82 e2 db be
       -0.26136178 -0.19127609 -0.54170203 -0.4294625
000220 08 61 01 bc 86 9c a1 bd d2 df 89 3d f6 6d f5 be
       -0.007896669 -0.078911826 0.067321435 -0.47935456
000230 19 7a 88 3e de a5 f3 3d 14 9b 33 bf ad 13 94 3c
       0.26655653 0.11896871 -0.70158505 0.018075788
000240 c4 5d c5 3e 20 c2 fc 3e a2 7e c9 bd 47 80 03 bf
       0.385481 0.49366856 -0.098386064 -0.5136761
000250 64 c5 a8 3d 05 70 6b 3e 26 0f 25 3e 4d f5 8e bd
       0.08240774 0.22991951 0.1611906 -0.06980381
000260 10 4a 70 be 85 0f dd bd 0d 9b 85 be ef f5 66 3e
       -0.23465753 -0.10793976 -0.26094857 0.22554754
000270 12 b9 23 bd 33 57 72 3e e3 c8 50 3e 69 2e 2d 3e
       -0.03997142 0.23666076 0.20389132 0.16912235
000280 63 e1 cf 3e 72 e7 87 3d 5b fb 17 be f0 76 d3 3d
       0.40601644 0.066359416 -0.14841978 0.1032542
000290 03 38 85 3e 60 c8 55 3e 88 af 6f be 0d 29 ad be
       0.26019296 0.20877218 -0.23406804 -0.33820382
0002a0 66 19 9b 3d 59 b0 2a 3e b6 d5 47 be ac 40 56 be
       0.07573204 0.16668834 -0.19515118 -0.20923108
0002b0 f1 61 e8 bd cc 8b 93 3e 0b 72 e1 3c 6f cf d1 be
       -0.11346806 0.28817594 0.0275202 -0.40978572
0002c0 97 5b e3 be 2c 46 49 be 4a ed e7 3c d8 7b fd bd
       -0.44405815 -0.19655675 0.02831139 -0.12377137
0002d0 ff bf f2 3d 2a b4 48 be 40 bd 07 3f e5 6e 2b 3f
       0.118530266 -0.19599977 0.5302315 0.66966087
0002e0 12 a7 3b bb 10 5e da bd fe 5a 18 bf 7c 77 aa 3d
       -0.0028633517 -0.10662472 -0.59513843 0.08323571
0002f0 c1 df 7c be 81 65 5c 3e f7 02 a3 bd ec 1a db bd
       -0.2469473 0.21523096 -0.0795955 -0.10698494
000300 1e 3e 8b 3d 2c fc 9e be dd b2 8b 3e 7d 4e 27 3d
       0.06798957 -0.31051767 0.272849 0.040846337
000310 41 f2 06 3f 9a f2 66 be 81 10 19 be 22 b5 cc bd
       0.527134 -0.22553483 -0.14947702 -0.09995486
000320 08 73 a0 3e 22 61 cf bd 52 90 d0 be c8 5f c1 3e
       0.31337762 -0.101259485 -0.40735108 0.37768388
000330 f3 8c c6 3e 96 e8 90 3d 30 fd c2 3d 3d c1 11 3e
       0.3877941 0.07075612 0.09520948 0.14233871
000340 ed 07 cb be bc 81 fa bd 03 87 eb 3e 9e b4 9e bd
       -0.39654484 -0.12231776 0.46001443 -0.07749294
000350 83 06 ee 3e 63 b9 00 be c8 33 be bd 0d ba 9a be
       0.46489343 -0.1257072 -0.0928722 -0.3022007
000360 32 8c b8 bd f2 f3 c7 3e 43 74 59 be cc f8 f4 bc
       -0.09011115 0.39053303 -0.21235757 -0.029903792
000370 c0 12 62 3e d8 72 ba 37 38 3d 76 3e 3e 55 e6 be
       0.22077465 2.2226406e-05 0.2404679 -0.4498691
000380 bf 65 8d bd ab e1 52 3e 32 0e 85 3e 10 b1 af 3e
       -0.06904172 0.20593898 0.25987393 0.34314775
000390 0d dc b5 be 08 08 33 3e 95 6a 77 3d 28 9b 55 bd
       -0.35519448 0.17483532 0.06040438 -0.05214992
0003a0 15 26 88 3e b4 60 b9 3c 2b 6d 4e be 1f a3 a8 3e
       0.26591554 0.02262912 -0.20158832 0.32936952
0003b0 1f 59 11 3e 2f bb be 3c 90 14 7b bd a4 a5 36 be
       0.14194153 0.023282615 -0.061298907 -0.17836624
0003c0 7d 7a ce 3d 3b f0 ce 3e 11 e5 24 3d 1a 0f dc bd
       0.100819565 0.40417656 0.040257517 -0.10745068
0003d0 cd cc 0c bd 4b 63 f8 3e ca 97 46 be 94 51 2b be
       -0.034375 0.48513255 -0.1939384 -0.16730338
0003e0 95 25 84 3d b0 7b 97 bc 42 4a ff 3e 08 a1 34 be
       0.06452481 -0.018491596 0.49861342 -0.17639554
0003f0 9f 7c 9e be eb 42 58 3d 6f 41 a9 3d d5 09 25 3d
       -0.30954453 0.052798193 0.082644336 0.04029258

layer1.bias f4 [32]
000000 25 1f 01 3e 04 cd 07 3d e5 c0 c4 3d 20 18 1a 3e
       0.12609537 0.033154503 0.09607104 0.15048265
000010 90 7c 2b 3e 84 b3 09 3e 3a 1e ed 3d 76 2e ca 3d
       0.16746736 0.13447386 0.11578031 0.09872143
000020 10 09 47 3e 34 69 54 3e 37 8d 4f 3d d9 2e 37 3d
       0.19437051 0.20743257 0.050671782 0.04472241
000030 bb cf ca 3d 5a f6 fd 3c 78 13 8c 3d 3e 36 43 3e
       0.09902903 0.031001259 0.06839651 0.1906366
000040 98 4b 36 3d ee 7b a6 3d 17 ff 93 ba f8 3a 5f 3d
       0.044505686 0.081291065 -0.0011291233 0.054499596
000050 df 54 46 bc 0a 22 06 3e 6e 6d ab 3d d6 46 ba 3d
       -0.012105196 0.13098922 0.083704814 0.09095542
000060 b7 c7 85 3d ee 92 bb 3d 74 63 bc 3d 67 ad 9e 3d
       0.06532233 0.09158884 0.09198657 0.077479176
000070 22 08 00 3e 95 58 f8 3d 91 72 09 3e c6 7c 13 3b
       0.12503102 0.12126271 0.1342261 0.002250479

layer2.weight f4 [15, 32]
000000 6d be 1f bf 96 f5 60 bf e4 75 cc be ec 98 d7 bc
       -0.6239994 -0.87874734 -0.39933693 -0.026318036
000010 ba e7 ed 3e c0 3a af 3e 0f 15 00 bd 63 52 63 3e
       0.46465856 0.3422451 -0.031270083 0.22199397
000020 74 23 6a bf 22 d4 c8 bd 88 92 f3 be d4 28 31 be
       -0.9146035 -0.09806086 -0.47572732 -0.17300731
000030 61 87 71 be 3e 63 75 bd 86 66 47 3e 7e 04 c7 3e
       -0.23586799 -0.059909098 0.19472703 0.38870615
000040 e9 2d 8e 3e 6e 82 e5 3e 0b 1a d0 3d fb fb 6a bc
       0.27769402 0.44826072 0.10161217 -0.014342303
000050 ac c3 f0 3e 8c 5d cf 3e 42 52 a9 3e 5a cd a2 3e
       0.47024286 0.40501058 0.3307057 0.31797296
000060 ba 42 e5 3c 69 81 b4 bf 8d de 3f bf 52 54 04 bf
       0.02798592 -1.4101993 -0.7494896 -0.5169116
000070 11 78 b7 be 42 3f 5f 3e 85 02 22 bf 58 83 09 3f
       -0.3583379 0.21801475 -0.63285094 0.5371604
000080 aa 15 e1 3e 26 c3 01 3f 6f 9d 44 3e 2c 5e 8b bf
       0.4396184 0.506884 0.19200681 -1.0888114
000090 2a d4 41 3e 82 54 e6 3e c8 f7 c6 3e c7 59 e9 be
       0.1892859 0.4498635 0.38860917 -0.45576307
0000a0 58 0f ec 3e 75 61 36 3e fb c6 44 be 02 da 41 bf
       0.46105456 0.17810614 -0.1921653 -0.7572328
0000b0 96 01 29 bf b8 85 9c be a8 34 c3 3e e0 1d ea 3e
       -0.66018045 -0.3057077 0.3812611 0.45725918
0000c0 52 1f 14 3f 8c 81 62 bf 1b 75 42 3e 8b 53 7d be
       0.5786029 -0.8847892 0.18989985 -0.247389
0000d0 df dc 8a bf fc 3d 6f be 94 92 53 3e 20 47 2d bf
       -1.0848655 -0.23363489 0.20661384 -0.67686653
0000e0 47 d7 6d 3d 23 68 ab bd a1 e4 d9 be 8a 22 47 3e
       0.058066633 -0.08369472 -0.42557243 0.1944677
0000f0 36 eb 49 bf 99 fc e4 3e 49 dd 96 3d 46 14 34 be
       -0.7887453 0.44723967 0.073664255 -0.17585859
000100 9f c7 29 3f d7 98 1b bf 77 50 b4 3e 25 9b 2c 3f
       0.6632022 -0.6078009 0.3521764 0.6742423
000110 85 a1 8e bd c6 fa cc 3e 56 39 b5 3d 89 d5 7e 3e
       -0.06964401 0.40035075 0.088488266 0.24886145
000120 c0 9a a4 3d 7b 24 cd 3e f2 3b 93 bf 06 db fc 3e
       0.08037329 0.40066895 -1.1502669 0.49385852
000130 16 ac c1 3d a2 ef 1d bf ec 5e 37 bf 61 85 01 3e
       0.09456651 -0.61693776 -0.71629214 0.12648536
000140 48 4d 08 3f 55 e7 b4 3d d8 8c 94 be 1c 64 8f bd
       0.5324292 0.088331856 -0.29013705 -0.07001516
000150 b8 c7 c5 be ef 15 86 bf 95 de 56 3e 1c 34 be bd
       -0.38628936 -1.0475444 0.20983346 -0.09287283
000160 5d a7 22 be 9e 5b 1f bf 21 52 9c be 07 46 67 bf
       -0.15884157 -0.6224917 -0.3053141 -0.9034123
000170 4b ef be bb 2a c6 47 bf aa 7c 5b 3e d8 54 d5 be
       -0.005826866 -0.7803675 0.21434274 -0.41666293
000180 bd a0 58 be 72 16 e3 3e 00 6f ea 3e 94 3e ac 3e
       -0.21155067 0.44353062 0.4578781 0.33641493
000190 57 bb 9c bf de f4 2d 3e 48 2b 69 3e 71 9f 47 bf
       -1.2244672 0.1698794 0.22770417 -0.77977663
0001a0 74 c0 3c 3e 72 a1 58 bf 83 35 d2 3d 6d 24 c3 3e
       0.1843279 -0.84621346 0.10264113 0.38113728
0001b0 b5 15 f1 be 63 7d db 3e bb cf 9f 3d c2 b1 f5 be
       -0.47086874 0.428691 0.07803293 -0.4798718
0001c0 ab 63 34 3e 1f 75 44 3e 30 22 68 3e 66 d6 14 3f
       0.17616145 0.19185303 0.22669291 0.58139646
0001d0 ea fb a5 3e 59 a3 a8 3e 18 17 1a bf 4e e9 48 bf
       0.32418758 0.32937124 -0.6019149 -0.78480995
0001e0 f1 1c 05 bf 18 43 b0 3e da 5d 3b bf 53 60 db be
       -0.51997286 0.34426188 -0.7319008 -0.42846927
0001f0 f7 5b 7a 3e 14 65 17 bf 20 be fe 3e b5 81 09 3f
       0.24449144 -0.5913861 0.4975443 0.5371354
000200 00 40 15 3d a8 ba 1a bf 08 ba 16 3f 33 b2 82 3b
       0.03643799 -0.60441065 0.5887761 0.003988528
000210 d4 33 8f 3e 60 88 94 3d 12 cf af bd e3 fa 82 3e
       0.2796923 0.07252574 -0.085844174 0.25582036
000220 43 00 ff be af 20 38 bf 4d bd 07 3f 79 51 67 3d
       -0.49804887 -0.7192487 0.53023225 0.056474183
000230 74 33 d9 be a1 70 06 bf 63 b5 de be 23 a4 76 bf
       -0.42422068 -0.5251561 -0.43497762 -0.963442
000240 3c 5c e5 3e c7 c0 62 bf f5 5e d2 3e ad c2 a6 3e
       0.44796932 -0.88575405 0.4108807 0.325704
000250 0a 19 98 3e 39 b2 5b bf 64 41 cd be 39 61 04 3e
       0.29706603 -0.8581882 -0.40088952 0.12927713
000260 97 44 06 3f 0c 3a 8e be 9e 9d d9 3e 10 7d 1a bf
       0.5244841 -0.2777866 0.42503065 -0.6034708
000270 c4 a8 cb 3e 2e 00 a9 bc dd 67 53 bf 98 72 9c 3e
       0.39777195 -0.020629968 -0.8258036 0.30556178
000280 ca b1 18 3f e4 11 04 bf 70 6c a6 bf 86 cf 80 be
       0.59646285 -0.515898 -1.3001842 -0.25158328
000290 b2 ca ce 3e 46 6c dd be 10 9a e9 be c1 bf 2a bf
       0.4038902 -0.4324667 -0.45625353 -0.66698843
0002a0 5d 8d 89 3d 80 0c 1a bf c8 2e 10 3f b8 0c 03 bf
       0.06716416 -0.60175323 0.5632138 -0.5119128
0002b0 35 3f 25 3f 81 b4 40 be d1 54 65 bf dd 6b 8d 3e
       0.6454957 -0.18818857 -0.89582545 0.27621356
0002c0 dd 4e a7 be 85 8b 88 3e 21 d7 85 3d 05 9d af 3d
       -0.32677355 0.26668945 0.06535173 0.08574871
0002d0 af 2e db 3e a7 a0 9d 3e 2d 83 53 bf f0 ef bb bd
       0.42809054 0.3078663 -0.82622033 -0.09176624
0002e0 52 b3 20 bf b6 b7 7d be e0 51 22 be 70 a2 25 3e
       -0.6277362 -0.24777111 -0.15851545 0.16175246
0002f0 22 87 d5 3e 0d e0 3d 3e 81 9c 85 3e ac 7e 91 3e
       0.4170466 0.185425 0.26095966 0.28416955
000300 21 5c 06 bf 64 d1 0f 3f 0a ba cb be 90 2e 1f bc
       -0.5248433 0.5617888 -0.39790374 -0.009715691
000310 13 e3 45 bf 47 0d 35 bf c3 9a 20 be 11 f9 66 bf
       -0.7729961 -0.70723385 -0.15684037 -0.90223795
000320 a6 d0 ff be f7 55 a5 3e 53 8f a0 3e 3c a0 dd 3e
       -0.49963874 0.32292148 0.31359348 0.43286312
000330 49 f7 a8 bd cb a8 64 be 81 ca fc 3e 42 9d d5 3e
       -0.08250291 -0.22330014 0.49373248 0.4172154
000340 7d 56 eb 3d 6a 01 3a be ed cd 1f 3f eb 28 64 be
       0.11491106 -0.18164602 0.6242359 -0.22281234
000350 7a b1 ec 3e 63 af 01 be 66 12 76 3e 2d 23 a3 3c
       0.46229154 -0.12664561 0.24030456 0.019914234
000360 78 83 98 3e c1 96 de 3d 71 c7 f8 3e 41 81 d6 3e
       0.29787803 0.10868598 0.48589662 0.41895488
000370 5d 21 db be 9c 8d 80 bf 41 af 24 bf 3e 90 3f bf
       -0.42798892 -1.0043216 -0.64329916 -0.7482947
000380 9c 28 b6 3e ff 4c 82 3e ba 42 c9 be 06 6c 43 3d
       0.35577857 0.25449368 -0.3930872 0.04771044
000390 fa 88 8b be 8c 40 8c bf cb 7c f4 3e 6a be 0c 3f
       -0.27252942 -1.0957198 0.4775146 0.5497805
0003a0 a1 44 3c bf c4 50 0c 3e 9c 9f 32 bf 2e da f8 be
       -0.7354222 0.13702685 -0.69774795 -0.48603958
0003b0 71 78 a2 3e ba d1 8f bf 58 da 2b be d4 ca e3 be
       0.31732515 -1.1235878 -0.1678251 -0.44490683
0003c0 31 e8 f4 be cc 20 23 3f a7 23 f0 3e c0 e2 88 bf
       -0.47833398 0.6372192 0.469022 -1.0694199
0003d0 8b 26 45 bf d6 9b 6b bb 15 61 85 3e e7 8b 7a be
       -0.77011937 -0.003595104 0.2605063 -0.24467431
0003e0 9c 2c 5f bf 81 bc b7 be a8 c9 ae 3e 07 bd 34 3c
       -0.87177444 -0.35886005 0.34138227 0.011031396
0003f0 02 e3 07 3f 6d c7 cb 3e e7 8f aa 3e 75 43 28 bf
       0.5308076 0.39800587 0.33312914 -0.6572793

layer2.bias f4 [15]
000000 f9 da 25 3d 78 a5 2d 3e 5f ab d4 3d 2e 2b 95 bd
       0.04049203 0.16957653 0.10384249 -0.072836265
000010 35 af 77 ba f9 4e bb 3c e8 76 f9 3d df c2 0e 3e
       -0.000944841 0.022864806 0.12180883 0.13941525
000020 8b a0 84 3d c4 da 81 bd 12 f4 b0 bd 69 42 73 3d
       0.06475934 -0.06340554 -0.08640303 0.059389506
000030 69 e2 36 3d 37 6a 63 be f5 7b 07 be
       0.044649515 -0.22208486 -0.1323088
